checkpoint_actor.pth (torch_old, 169484 bytes, 6 tensors)

fc1.weight f4 [256, 33]
00000000: 3323 0b3e 18de 3d3e 9135 78be 5dfc 8a3c
00000010: dcb4 353e 92cb b3bd 8525 203d f22b cbbd
00000020: 6d22 51be 80c8 0f3e 15ec 163e 23df 733e
00000030: 861d 183e 3c64 c63d f984 b53c aedd 483e
00000040: 27b9 1d3d 13c7 a8bd 994c 31bd 0bf5 633d
00000050: 8442 1fbe 79ff 08be 142e 90be e545 a43d
00000060: 1ac2 aabe 565e af3c 8342 70be e43e 703e
00000070: 3a3a efbd 702a 013d 404b 4ebe 7400 e93c
00000080: a28e 9b3f 6bb8 5abe 9284 0bbf 1b0b febc
00000090: 1b6e 143d 59cc 153e b79b 913c a43a fe3c
000000a0: 3e22 00be 4164 0b3e e7c5 903e a284 53bd
000000b0: 1061 d9bd ce69 a0bb 3602 3f3d a4c2 363f
000000c0: 3060 e2bc e985 c23d bcb3 d0bd b8af ac3b
000000d0: 2f69 833d 8436 22bd b48e 3fbd aa0b ab3d
000000e0: d3d2 cb3a 8cd5 953e 1544 323b 0d7d 1abc
000000f0: fef5 54be aaad 313e ca5b 71bd 0ae2 603e
00000100: 1a4e 543d 5c3b 3abd 69b2 ef3e 6a83 1ebf
00000110: 0fd3 2e3e 3880 193d e297 053d 67e4 09be
00000120: e88f 133e 835e 3c3d b278 283e 2aeb dd3c
00000130: e50e 0d3d 7953 76bd 3eed 193e 29aa 40be
00000140: 4489 ce3e b07b 033e ea07 8f3c 922e 0c3d
00000150: af75 05be 5270 393d ae37 a8bc 6950 27bd
00000160: 5844 7e3a d679 8ebd a718 523d 6523 0a3c
00000170: 3ebd f6bd 13c3 733e f4b1 c0be 2841 063d
00000180: 2ac3 99be 7ca1 12bd 7105 72bf c54f 023f
00000190: 3767 d33d 4b3e 053f a220 f7bd 8626 353d
000001a0: 6782 f4bd 0120 8ebd e5f7 7e3d fc09 5d3e
000001b0: 4341 983e 38fc 2abd 7079 333e 62e7 08bb
000001c0: 9962 ecbe 4dde 7a3d cf33 b3be 4053 8abc
000001d0: 7c3d a6bc 63d9 6fbd 0b52 3dbc 434e 9cbe
000001e0: f892 1d3e cc79 40bd a238 d5bd a7fe a23d
000001f0: 4783 9cbd f2c6 503e 15f4 193d 5bb9 763e
00000200: 8c51 63bd bb0b 03bc 38cd 34bd 4ca8 6fbd
00000210: f116 d8bd 1cd8 b73c 4d97 f3bd 3208 4abe
00000220: d19f dbbc 57a7 5e3e 4e2e 8abc e36e 3dbe
00000230: a044 15be 102b 433d 643c 10bd 3fab 09be
00000240: 1aa1 823e c182 47be 4b6b a83d f29a 83bd
00000250: 56e9 7f3c 6195 77bd e4b1 b43d 0aad 7cbd
00000260: 3d06 483e 57a0 083e 4ecf 2dbe ef92 1bbe
00000270: e171 983e 9307 cf3d e761 093e 0cec 2f3e
00000280: 75cb 673e b84f 373c 1a01 24be 28a8 743d
00000290: ff18 303f fdbb c2bc 7414 cbbe 43b7 ac3e
000002a0: 2abc 33bd 6f6f 06be f91b d9bd 86ec fdbd
000002b0: 4bbd 80bd 4cef 073e 7100 e1bc f917 a23c
000002c0: 3fe6 25bd 3478 763d 81da 6cbc 7d32 b13e
000002d0: 564b 5abe 631b 593d 55c1 c93c 9bf6 a03c
000002e0: ab0b f13b 0c72 b8bc 4089 9ebc c4c4 82bd
000002f0: 6598 c6bc 42d7 b73d 890c ccbc 6b79 163e
00000300: 8541 a0bd ee29 dd3d e88c bf3c 0978 8d3d
00000310: b44c 823c 2d2b eebf 09c8 b33d 869c 1cbf
00000320: a9d6 ccbd a05a 85ba 2442 4b3d aef5 01be
00000330: 63e0 5e3d 2c01 633d 7868 a23d fdaa 843d
00000340: 4d89 38be c536 a1bd e3ba fd3d 00d9 23be
00000350: 7e0a 0e3f f64a 13bd 1903 203b 557d fa3d
00000360: bf9c 043d afa6 aebc fbca 0ebb 4ee3 4fbe
00000370: 1bf9 02bd 0dc4 49be af71 a03e e622 573c
00000380: 3748 073e d21f 4b3d fa04 363e 90ba 223d
00000390: 97b2 d9bd 3880 463c df6b b23e fa1e 21be
000003a0: 83e6 8dbd f38c d63e 64f4 b73b 1bb9 05bd
000003b0: cffa 13bd f346 cd3d 4219 25be 1c5d b83e
000003c0: 49af 22bd bd10 17bd ba8b 06bd 776d 933c
000003d0: 2a57 b1be b3ee 5fbe d230 2cbe d46e 12be
000003e0: 31bd 47bd f907 6b3d 163e 8db9 8c31 ca3d
000003f0: c22f 26be 20bf 8c3d 0bb3 babd 7680 8cbe
0.13587646 0.18541753 -0.24239184 0.01696604 0.17744774 -0.08779062 0.03909828 -0.09920491
-0.20423289 0.14041328 0.14738496 0.23815589 0.14855012 0.09687087 0.022158133 0.19615814
0.038506653 -0.082410954 -0.04328594 0.055653613 -0.15552717 -0.13378705 -0.28160155 0.08021144
-0.33351213 0.021407288 -0.23462872 0.23461491 -0.11681028 0.031534612 -0.20145893 0.028442599
1.2152903 -0.21359412 -0.5449916 -0.031011155 0.036237817 0.14628734 0.017774446 0.031033821
-0.12513062 0.13612463 0.28275988 -0.05164016 -0.10614216 -0.0048954254 0.046632968 0.7139075
-0.027633756 0.094981976 -0.101905316 0.0052699707 0.064165466 -0.03960277 -0.04676695 0.08351834
0.0015550501 0.29264486 0.0027201225 -0.0094292285 -0.20796964 0.17351404 -0.058925427 0.21961227
0.051832296 -0.045466766 0.46815804 -0.6191927 0.170727 0.037475795 0.03261555 -0.13466035
0.14410365 0.04598857 0.16452292 0.027089674 0.034438033 -0.0601382 0.15031907 -0.18814911
0.403391 0.12840152 0.017459828 0.0342241 -0.13033174 0.045273133 -0.020534363 -0.04084817
0.0009699515 -0.06956832 0.05129304 0.00843129 -0.12047814 0.23804884 -0.37635767 0.03277698
-0.3003171 -0.035798535 -0.9453955 0.5090297 0.10322421 0.52048177 -0.12066771 0.044226192
-0.11938935 -0.06939698 0.06224813 0.2158584 0.2973729 -0.04174444 0.17526793 -0.0020889868
-0.46168974 0.06124716 -0.35000464 -0.0168854 -0.02029299 -0.058556926 -0.011555205 -0.3052846
0.15388095 -0.046991155 -0.104111925 0.07958727 -0.07642227 0.20388392 0.03758629 0.24094145
-0.05549769 -0.007998402 -0.044141024 -0.05851011 -0.10551251 0.022441916 -0.11894093 -0.19729689
-0.026809605 0.21743523 -0.016867783 -0.18499331 -0.1457696 0.04764849 -0.035213843 -0.13444231
0.25513536 -0.19483472 0.082235895 -0.06426038 0.0156195965 -0.060445193 0.088229924 -0.06168846
0.1953363 0.13342415 -0.16973612 -0.1519277 0.29774383 0.101088665 0.13416253 0.17179888
0.22636206 0.01118844 -0.16016045 0.05973068 0.6878814 -0.02377128 -0.39664042 0.33733568
-0.04388062 -0.13128446 -0.106010385 -0.12398629 -0.06286105 0.13274878 -0.02746603 0.019786822
-0.040502783 0.06017323 -0.014456392 0.34608832 -0.21317801 0.053004634 0.02462832 0.01964884
0.0073561273 -0.02251532 -0.019352555 -0.06385186 -0.02424259 0.08976604 -0.024908321 0.14694755
-0.07824997 0.10799013 0.023382619 0.069076605 0.015905716 -1.8606926 0.08778388 -0.61176336
-0.10001881 -0.0010174103 0.049623623 -0.12691376 0.05441321 0.05542104 0.07930082 0.06477926
-0.18021126 -0.078717746 0.123891614 -0.16000748 0.5548476 -0.03596016 0.002441591 0.122309364
0.032376047 -0.021319715 -0.0021788466 -0.20301554 -0.031975847 -0.19703694 0.31336734 0.013130879
0.13211142 0.049590893 0.17775336 0.0397287 -0.106297664 0.012115531 0.34847924 -0.15734473
-0.06928732 0.4190441 0.0056138504 -0.032647233 -0.03612786 0.10023298 -0.16122916 0.36008537
-0.039717946 -0.036881197 -0.032848097 0.017996533 -0.34636813 -0.218684 -0.16815498 -0.1430009
-0.04876441 0.05738065 -0.00026939873 0.098727316 -0.16229156 0.06872392 -0.09116181 -0.27441758

fc1.bias f4 [256]
00000000: 4130 ecbd 4ad6 c93e 1d52 95be 954a ce3d
00000010: ffb8 5bbe a401 bdbd 4eb9 59be 41fe cbbe
00000020: d118 6dbd 3ac3 71be 68b4 c2be a5b6 21be
00000030: 1201 98bd 9b5f a0be 187d a5be 11f5 2abe
00000040: 3c2e 933e 37e7 ccbe da72 36be f3ba f0bd
00000050: 4ae1 9cbc 9ff0 563e 116d 81be 6837 acbd
00000060: f7b3 2abe 58ae f2be f868 43be 3b77 8bbe
00000070: d4a0 0dbe 0619 ebbd ae90 7abe 9a49 bcbe
00000080: aef9 16bf 91a2 abbe 3237 15be ad5a efbe
00000090: 337a 0bbf 30f3 e8bd 4fd6 6cbe 9e79 7dbb
000000a0: 49c4 16be 0789 973d da1b 1b3e 5fdb a3be
000000b0: 7eb1 94bd 2a5b 01bf e781 663b c2f7 8cbe
000000c0: a10d ef3c 90d5 8cbe 811c 06bf d229 e13c
000000d0: c6f6 6bbe ffae abbe b41b 8fbe f217 173d
000000e0: 0c56 5ebe 26a0 41be bb76 17be dc81 3f3c
000000f0: 08ed 94bb 7c13 abbd cacb f6be bf29 18be
00000100: 72b5 acbe 84e1 ecbe f07a a1bc e355 4c3d
00000110: ab83 603d 53e2 30be adb8 abbd c995 d3bd
00000120: b937 5bbe 2ab9 4fbe 3213 f4be 63fe c33d
00000130: 9a68 2f3e 7295 cbbe 8bb7 9b3c 574f 6cbd
00000140: 0f54 79be 1adc 2cbe 695e 5dbe 06ea d13c
00000150: 328d 85bd 69ef 1dbf 850d 183d 4046 bbbc
00000160: 2509 8f3e a67f 82be 5531 32be 20aa febc
00000170: b5aa 863e 9c4a 95be 576c a8be 60e0 bfbe
00000180: 9c70 6bbd b782 4fbf 9bc8 52be 02f5 89be
00000190: 313f cbbe 524a 85bd aa54 bfbe fd67 b83d
000001a0: 9ae9 bdbe 665e 38be d890 9bbe 2032 203d
000001b0: 1fe6 ba3d 6f20 eabe b504 22bc a1da 94bd
000001c0: a8a2 2fbe d9a5 88bc 08aa 43bd 7255 9abe
000001d0: c6a9 77be 3ba0 30be e3a1 f3bd fa85 e7be
000001e0: 6815 783e 3458 febe 771e f3be f6c8 55be
000001f0: 1d99 b5be 08ff a0bb bf7a 55bd ee3d 07bf
00000200: 4912 1ebf 84ed 40be 9af3 c2be 6f6d b3be
00000210: 629e d4be 14d9 00be ebeb 6dbe 67cc 2bbe
00000220: f79a 1dbe c7ee 99be da6e 07bf 1035 a2bd
00000230: d781 f63d 691e 2abe 1b76 b8be 79da 9bbe
00000240: 3371 ecbd f358 ca3c e572 0abf adae 6dbe
00000250: de44 98be fd02 b3bc 6814 e2be 106b 98be
00000260: c32a 95bd 65a2 9cbd 0e0b d3bd 5b7d 71be
00000270: f4c7 b4bd fa0e 76bd 9345 83be da92 3dbd
00000280: 4e27 ddbe 39a6 01be 02e1 f9be ac0f e1be
00000290: 8b12 c2bb 700e b1be 1c2e fc3d 4ae6 f0bd
000002a0: b58d 9fbe 8821 4c3e cece cebe 6714 7f3e
000002b0: 41b3 ecbe b43a 3fbe 83c9 03be 7b78 96be
000002c0: 4884 143e 04cd 86bd 87ca a13d 610b 76be
000002d0: b696 bebc cfd3 e93d a30e c7be 751c 53be
000002e0: 890a c03d 3709 75be a2c7 19bd e2ec 66be
000002f0: aa4f 3a3e 1e91 973e 664f 013d cc67 9fbe
00000300: eb79 9ebe 2227 d9bc 1a65 19be c81b 31be
00000310: ce82 a5be d33a 0dbe a789 51be 33e8 64be
00000320: bc17 a6bd ebe7 71ba af26 02bf 8732 17bf
00000330: ae6e 343a a986 d4bd 4ab4 0fbe 8b23 bdbe
00000340: 706c eabe 5522 323d 82a2 49bd 211e 83bd
00000350: 0a1f 12bd f414 bfbe 4804 e2bd 241c bcbd
00000360: 5a06 34be a395 58be ab65 7dbe 515e eb3b
00000370: 7c9e bc3d ddc8 64be 2928 b6be bde0 f7be
00000380: 3be2 f5bd ef85 89be d7a1 a8be b9f7 53be
00000390: 4db5 5fbe 5f62 24be ee85 91bd 0079 cdbc
000003a0: 8bcb a6be 46cc f0be f8e2 c33e 724e aebe
000003b0: 7778 20be 36f7 fb3d 588f 353c a3fd 29be
000003c0: fe6d a3be 4f00 36be 35b8 b8be 759c 75be
000003d0: a7b7 5f3e 6857 493e bc46 a5bd 1e84 bbbd
000003e0: ca78 4ebe c116 ddbd 01f2 99be aebe e5bc
000003f0: 6112 b63e 82c8 9fbd 591a 42bc fa73 a1bc
-0.11532641 0.39421302 -0.2916421 0.10072819 -0.21457289 -0.092288285 -0.21262094 -0.39842418
-0.057884995 -0.2360963 -0.38028264 -0.1579233 -0.07422079 -0.3132294 -0.32322 -0.16695048
0.28746212 -0.40020153 -0.1781725 -0.11754408 -0.019150395 0.20990227 -0.25278524 -0.084090054
-0.16670214 -0.4739864 -0.19083011 -0.27239403 -0.13830882 -0.11479382 -0.24469253 -0.36774904
-0.5897473 -0.33522466 -0.14571837 -0.46748868 -0.54483336 -0.11374509 -0.23128627 -0.0038677226
-0.14723314 0.07399183 0.15147343 -0.32003304 -0.072604164 -0.5052973 0.0035172643 -0.27532774
0.029181303 -0.27506685 -0.52387244 0.027485762 -0.23043355 -0.3353195 -0.27950823 0.03688807
-0.21712512 -0.18908748 -0.14791386 0.011688676 -0.004544858 -0.08353326 -0.48202354 -0.14859675
-0.33732182 -0.46265805 -0.019711941 0.049886595 0.05481307 -0.17273836 -0.083848335 -0.103313036
-0.21407975 -0.20285478 -0.47670895 0.09570005 0.17129746 -0.39762455 0.019008419 -0.057692852
-0.24348472 -0.16880837 -0.21618046 0.025624286 -0.065210715 -0.61693436 0.03712227 -0.022860646
0.27936664 -0.25488013 -0.17401631 -0.031086981 0.26302114 -0.29158485 -0.32895157 -0.37475872
-0.05748044 -0.8105883 -0.20584337 -0.2694474 -0.3969665 -0.06508316 -0.3736928 0.09004209
-0.37092286 -0.1800476 -0.30383945 0.039110303 0.09125923 -0.4572787 -0.009888818 -0.07268263
-0.17151892 -0.016680645 -0.047769576 -0.30143315 -0.24185857 -0.17248623 -0.11896112 -0.45219404
0.24226916 -0.4967667 -0.4748418 -0.20877442 -0.3546838 -0.0049132146 -0.052119013 -0.5282887
-0.6174665 -0.18840605 -0.38076478 -0.3504443 -0.41527086 -0.12582809 -0.23234527 -0.16777192
-0.15391146 -0.30064985 -0.5290352 -0.07920277 0.12036484 -0.16613163 -0.36027607 -0.3044012
-0.115450285 0.024700617 -0.54081565 -0.23211165 -0.29740041 -0.02185201 -0.44156194 -0.29769182
-0.07283547 -0.07648162 -0.10304843 -0.23582976 -0.088272005 -0.060072877 -0.25639018 -0.046282627
-0.4319405 -0.12661065 -0.4880448 -0.4395727 -0.0059226207 -0.34581327 0.12313482 -0.11762674
-0.311628 0.19934666 -0.40392154 0.24910127 -0.4623051 -0.18674737 -0.1286984 -0.29388794
0.14503586 -0.065820724 0.07899957 -0.24027778 -0.023265224 0.114173524 -0.38878354 -0.20616324
0.093770094 -0.23929296 -0.0375439 -0.22551301 0.18194452 0.29602903 0.03156986 -0.31133878
-0.3095239 -0.026507918 -0.14979973 -0.17295754 -0.3232636 -0.13791971 -0.20462666 -0.22354202
-0.08109996 -0.0009227979 -0.50840276 -0.59061474 0.00068829476 -0.10377247 -0.14033619 -0.3694118
-0.45785856 0.043489773 -0.049227245 -0.06402231 -0.035674132 -0.37320673 -0.11035973 -0.09185055
-0.17580548 -0.21150832 -0.24745815 0.0071828743 0.09209916 -0.22342248 -0.35577515 -0.4841365
-0.12006041 -0.26859996 -0.32935974 -0.20699967 -0.21846505 -0.1605315 -0.07105623 -0.025082111
-0.32577166 -0.47030848 0.382591 -0.34044224 -0.15670954 0.12303011 0.011081539 -0.16600661
-0.31919855 -0.17773555 -0.3607804 -0.23985465 0.21847402 0.19662249 -0.08070132 -0.09156059
-0.20163265 -0.107953556 -0.30067447 -0.028045025 0.35560897 -0.07801916 -0.011847102 -0.019708622

fc2.weight f4 [128, 256]
00000000: a8a8 313e a8a2 9abd ca9a dc3e a3a6 06bd
00000010: 8c84 3f3e 8ed0 933e 2cec afbd 75bf a33e
00000020: 2525 15be cf24 ae3e 7143 5cbe b425 a8be
00000030: dd50 133e a0c1 5abe 6b78 f13d 826f 00bd
00000040: 74f8 8c3d fcca b9bd 7b91 5e3c 8a30 ab3d
00000050: d9a3 8fbd 763f 423e 6166 36be 3b7c 17bc
00000060: 07bc 9b3e 68e5 3a3e 79cf 053f a097 4dbe
00000070: d426 ffbe 1baa 133e d06a bbbe 565a 1b3e
00000080: 8fd6 8ebe 289a 11be a172 953c 81c6 523e
00000090: a15c 36bf 9dde 3c3e 1b8d 42be 9902 be3c
000000a0: a080 e03d 3abd ab3d eba6 60be c390 823e
000000b0: 7575 4a3e aa85 17be b4c9 0f3d 494d 613d
000000c0: 3116 e9bd 16f5 b33e 9156 b93d 05e4 04be
000000d0: b4ff 2abe a351 9abe 452f f3be 7bed 873e
000000e0: 0b2a e2be 5588 94bd 7055 b13e fe9f 2f3e
000000f0: 4572 923e 1633 88bd 37c3 353e df6a 223e
00000100: 630c 89bd e644 02bc 1b19 81be db86 e6be
00000110: d6ed aabe 6e73 f73d 7018 04be 0188 67bd
00000120: 45ee 583e 07c7 7b3d 32c1 ba3d 782d 91bd
00000130: 248d 2fbd b39d c2bb 7731 c53d a189 263e
00000140: b9ff 58be 0ea5 32be f12d 02be 8497 95bd
00000150: a6aa 4a3e e7e7 a0bd c11f 1a3e 6d1c 9f3e
00000160: b761 4abf 7286 afbd 3e3c 6abe a0f7 8e3e
00000170: 9b03 43bd 33a2 2dbf ddcb 0f3d 59ca 79be
00000180: 4fb2 413e 1c23 d83d 0ad0 bd3c 6a8f 4cbe
00000190: 4ad1 9a3e a7bf 563e 4716 66ba 8e3e 59bc
000001a0: fe76 68be b89b 323c 398b 87bd 2c8f 083f
000001b0: 2719 ec3c 7400 c73e 7d51 47be 564c 193e
000001c0: 91b1 883e 9bd0 2f3e 0713 c13e 45bd 3c3d
000001d0: d929 803d 4b6c 3e3e 7d94 b63e e548 b13e
000001e0: af69 a93e 2d92 67bd 3994 b1be 8ff3 0bbf
000001f0: 2b4a a23e b7a7 903e ab63 eb3e c1bd fc3d
00000200: b931 383e ee64 c13d ee5a 033f c64b 06be
00000210: 5322 d1be 5915 d63e 187f 83be 37a8 203e
00000220: 078b 8f3d bf89 553d 7c51 4e3e 2731 363e
00000230: 8d43 69bd 3f8d 9d3e 15f8 dd3c 497b 82be
00000240: 0fd6 853e 64d8 8b3e 4af8 57be 3519 ec3d
00000250: d46b e7be 7fe0 6abe c528 973d fdb0 cc3e
00000260: 57b6 ab3e a66a c0bd 4775 dabc bb14 2ebf
00000270: 0777 e33d 1f35 443e 2258 d93d 1526 84bd
00000280: 1d93 abbc 3258 de3d 82a7 a73e 248b b3bd
00000290: 6223 4ebe 1b7e 763e 56fe 4fbd 666f e9be
000002a0: 6444 29bf 13f4 333e 908a 34be 40e5 e93d
000002b0: f4c1 80be 29cf 35bf 978e c13d c48e 20be
000002c0: c047 41be 78df 803e 3795 06be db1b 9cbe
000002d0: a77b debd 5894 ef3d 7f28 0b3c 4d33 0d3e
000002e0: fcd4 4d3e e40d 8ebe bf6e 863d 26e1 9f3d
000002f0: 5246 053e c8a1 80be a7ec 853e 10f1 193e
00000300: 97c7 d63e 73e7 e7be b9ee ce3d 9ac8 f5bd
00000310: 854d 41be c5c7 ee3d 9830 1fbe b523 c73d
00000320: 9a87 6d3e 3d90 803e c390 283e 45ff f93c
00000330: 2497 c3bd 2671 143d 493b 8ebd 8b4e 573e
00000340: 9005 aa3e bff7 0b3d ab0b 8c3e 1184 d6bd
00000350: dbfd 723e d688 d73e b53d e53c 37f8 ca3e
00000360: 1718 843d 9708 66bb 6241 a63e 1403 b4bb
00000370: 1543 53bd b6fa 413e 7b22 1abe e7d1 1f3d
00000380: 7615 0bbd 991e b7be a335 b33d b8a6 e9bd
00000390: 553f ccbc e590 c73d 06b7 313e a936 073d
000003a0: 9a0d 4abd 859b 903e 1fbf 233e 7a0d b03d
000003b0: c114 89be c5b3 533d 3b9f 31bd f975 aabd
000003c0: cac3 8e3c 96e0 193f 0a18 7fbe 979a eebc
000003d0: 487d 25be 9c02 fbbd 6b09 bfbc 002e f03d
000003e0: d1c4 87bd e393 a9bf 2bf6 c9be 7818 1bbc
000003f0: 59ce 10be 4151 343e dfbd 12bd 0a09 b7be
0.17349494 -0.075505555 0.43086845 -0.03287376 0.18702906 0.28870052 -0.08589968 0.31982008
-0.14564951 0.34012458 -0.21510102 -0.32841265 0.14386316 -0.21362925 0.11790546 -0.031356342
0.06883326 -0.09071919 0.01358449 0.083588675 -0.07013673 0.18969521 -0.17812492 -0.009245927
0.3041689 0.18251574 0.52269703 -0.20077372 -0.4983431 0.14420359 -0.3660493 0.15171179
-0.2789807 -0.14218962 0.018243136 0.20583536 -0.7123509 0.18444295 -0.1899914 0.023194598
0.10962033 0.083857015 -0.21938674 0.2550107 0.19771369 -0.14797083 0.03510447 0.055005345
-0.11381186 0.35147923 0.09049714 -0.12977608 -0.16699106 -0.3014041 -0.47497 0.2654837
-0.441727 -0.07252566 0.34635496 0.17150876 0.28602806 -0.06650369 0.1775025 0.1586108
-0.06691816 -0.007950997 -0.25214466 -0.45024762 -0.3338458 0.12082563 -0.12899947 -0.056526188
0.21184643 0.061469104 0.0911888 -0.070887506 -0.04285921 -0.0059392094 0.09628575 0.16263439
-0.211913 -0.17445776 -0.12712838 -0.0730429 0.1979166 -0.07856732 0.15051176 0.31076375
-0.7905535 -0.08570565 -0.22874543 0.27923298 -0.04761086 -0.6782562 0.03510653 -0.24393596
0.18915676 0.105535716 0.02317049 -0.19976583 0.302378 0.20971547 -0.00087771233 -0.013259543
-0.22701642 0.010901384 -0.066183515 0.5334346 0.028820587 0.38867533 -0.19464679 0.14970526
0.26697972 0.1716942 0.3770983 0.04607894 0.06257982 0.18595998 0.35660163 0.34625927
0.33088443 -0.05653589 -0.34683397 -0.54668516 0.3169721 0.28252956 0.45974478 0.1234088
0.17987718 0.09443079 0.5131062 -0.13114843 -0.408465 0.41813162 -0.25682902 0.15689169
0.07008939 0.052133318 0.20148271 0.17792188 -0.056949187 0.30771825 0.027095834 -0.25484684
0.26139876 0.2731353 -0.21090809 0.11528245 -0.45199454 -0.22937201 0.07380823 0.3997878
0.33537552 -0.093953416 -0.02666725 -0.6800038 0.11106687 0.19160889 0.10612513 -0.06452576
-0.020944173 0.10856666 0.32744986 -0.08766773 -0.20130685 0.24071543 -0.050779663 -0.45592803
-0.6611998 0.17573576 -0.17630982 0.11420679 -0.25147974 -0.71019226 0.09451025 -0.15679461
-0.18875027 0.25170493 -0.13142858 -0.30490002 -0.108634286 0.11698216 0.008493542 0.13789101
0.20100778 -0.27744973 0.06564092 0.078066155 0.13015106 -0.2512343 0.26157114 0.15033364
0.4194915 -0.4529377 0.101041265 -0.12001152 -0.18877228 0.11659197 -0.15545881 0.097236075
0.23196259 0.25110045 0.16461472 0.03051723 -0.09550312 0.03624072 -0.069449015 0.21026056
0.3320737 0.034171816 0.27352652 -0.104744084 0.2372965 0.42096585 0.027983526 0.39642498
0.06449907 -0.0035100335 0.32471758 -0.005493531 -0.051577646 0.18943295 -0.15052216 0.039018538
-0.033956014 -0.35765532 0.08750465 -0.11408752 -0.024932543 0.09744433 0.17354974 0.033011112
-0.049329378 0.28243652 0.15990876 0.085963205 -0.26773646 0.051685113 -0.043364745 -0.08323283
0.017427344 0.60108316 -0.24911514 -0.029126449 -0.16161072 -0.12256357 -0.02331992 0.11727524
-0.066293366 -1.3248256 -0.39445624 -0.009466283 -0.14141215 0.17609121 -0.035825606 -0.35749084

fc2.bias f4 [128]
00000000: 7f1c e63a 3b45 a5be 9257 fabc 3240 75be
00000010: 0351 21be 322b 54be 863a 11be d277 abbd
00000020: df2f 7bbe e277 1b3e 7a2e 953d 5be9 07be
00000030: f6d2 1fbe 5121 d3bd f30b 5ebe 24a0 a4bc
00000040: 92c1 99bd 6fda 0b3e 5558 37be e17d 99bd
00000050: 30ae e0bd 94df 1fbe f623 a83c cc7a 2ebd
00000060: 3560 863b 435f de3c c53e 71be f95b 703b
00000070: 31fb 993d 6e76 e7bc 5f9e 023e a05e 943d
00000080: a3f5 97bd ac0f 86bb eeba 52be 85d6 4c3c
00000090: bda5 243d 2d22 c6bd 691c 943d 0b35 59be
000000a0: e6a7 22bc 13e8 0a3d d95f 923b da6c f43d
000000b0: 3e7c 123d b8e7 bebd 3035 a6bd 7652 a5bd
000000c0: 1bfc 76bd 296a 94be 0d50 0dbd 282a 89be
000000d0: b23d 35be bc22 683e c7f5 afbd 2e5c 773d
000000e0: f018 143d 4808 cc3b c361 d53d 6f71 1e3e
000000f0: 120a 26bd 0f7d 98bd f162 1bbc 2990 273e
00000100: d675 803d 7144 3e3d a05e b0bc 01c5 d23d
00000110: 82cb 2cbe 3fca 7dbd cdab 74be c7a2 1bbe
00000120: af9e a93d c889 68bd 9107 70be 7670 dfbd
00000130: deb2 023c a44a 5ebd 94e0 1abd 5b8b d2bd
00000140: a5fb 37be 6c46 8e3d e020 e53d aec4 1dbe
00000150: dfb7 7abe 7ef3 e6bd 100f f13d cf7a c8bc
00000160: 9efc fdbd 5ba5 94bd 0a0d d53d 686c 43bd
00000170: 4f00 4cbc 0529 083d ff98 38be 2cb9 fcbd
00000180: d19d 403d 5308 c93d be10 a4bb 8fea 2b3e
00000190: 8b00 b9bc 97d9 12be fa16 33be 3e3c dfbd
000001a0: 411c 8cbc ca77 a5bd db0f 88be 926b 6f3e
000001b0: 3a1f cebd 85a3 c9ba d574 68be cd05 17be
000001c0: 5a98 9bbc 0447 ebbd 880a f03d f274 b0bd
000001d0: b1d0 8abe ac88 64be 6293 653e e735 f4bb
000001e0: f33b 6ebe d3f0 ab3c 8b3b 0bbe 62ab fd3d
000001f0: 74a6 973d ae5c fd3d 5683 39be 0136 7f3d
0.00175561 -0.3227938 -0.030559335 -0.2395027 -0.1575356 -0.20719603 -0.14182481 -0.08372463
-0.2452998 0.1518245 0.07284255 -0.13272612 -0.15607819 -0.10309089 -0.21684246 -0.020095892
-0.07507624 0.13657545 -0.1790479 -0.074947126 -0.10970724 -0.15612632 0.02052496 -0.042597577
0.0041008242 0.027145034 -0.23559101 0.0036675914 0.07518614 -0.028254714 0.12755726 0.07244611
-0.07419898 -0.0040912237 -0.2057912 0.012502317 0.040197123 -0.09674487 0.07231981 -0.2121164
-0.009927725 0.03391273 0.0044669923 0.11934824 0.035763018 -0.093215406 -0.081156135 -0.08072369
-0.06029902 -0.28987244 -0.03450017 -0.26789975 -0.17699316 0.226695 -0.085918 0.060390644
0.036156595 0.006226573 0.10419037 0.15472959 -0.040536948 -0.07445728 -0.009484039 0.16363586
0.062724754 0.04645199 -0.021529496 0.10291482 -0.16874507 -0.061960455 -0.23893662 -0.15198813
0.082822196 -0.056772023 -0.23440386 -0.10910122 0.007977216 -0.0542704 -0.03781183 -0.10280486
-0.17967089 0.06947026 0.11187911 -0.15407059 -0.24484204 -0.11276911 0.11770451 -0.024472622
-0.124016985 -0.072581016 0.10402878 -0.047710806 -0.012451245 0.033242244 -0.18027113 -0.12340006
0.047025505 0.09816041 -0.0050068786 0.16788696 -0.022583267 -0.14340816 -0.17489234 -0.10900162
-0.017103316 -0.080794886 -0.26574597 0.23380879 -0.1006455 -0.0015383816 -0.22700818 -0.14748307
-0.018993545 -0.114881545 0.11720759 -0.086160555 -0.27112344 -0.22317761 0.22419503 -0.0074527147
-0.23265056 0.020988857 -0.13596933 0.12386204 0.07404795 0.12371193 -0.18116507 0.06230736

fc3.weight f4 [4, 128]
00000000: 9e42 983f c915 4c3e 10fa 6abf 809b 0d40
00000010: 430a 8ebf eb0b 19c0 f4f4 2ebf d14f 2d3e
00000020: 046a 973f 5f3e 113f 562e 363e 6f13 f8bf
00000030: 1c6a 89bf 8e70 0d3f a0b6 62bf a6fa 6a3f
00000040: 5388 ae3f 3896 993f 8452 92be f600 fc3f
00000050: ccd0 a63e b743 c63e 196d 523e 3dcd 7a3f
00000060: e8a4 b43e 87b3 ae3c 7db3 b93e 0491 ecbe
00000070: 11a7 023f c9c2 2fbf 0d3f d53f 5055 283f
00000080: b41a 6dbf 4196 d03f 9173 0a3e dfff 013e
00000090: d477 b9be e6fa b4bd f49c 9bbf 3be7 3b3f
000000a0: ea87 45bf 2934 15bf 0848 0a3f b21d d4bf
000000b0: 9f4e e03f 6839 5ebf 67fa d13e 6a92 1c3d
000000c0: b767 343d 2592 393f 8209 f8bf d0b1 48bf
000000d0: ed44 fc3e 43e4 b3bf 456d b43d d013 9e3f
000000e0: 9b18 aabe 5cd1 6abe d8c5 4a3f 6437 34bf
000000f0: 7c75 9a3d 4f2b a83d 2436 73bf fc4a c93f
00000100: c4f8 77be af7d a5be 7e8b e3bf b5ef 7f3f
00000110: 74de 69be 72f8 da3e e0d0 663e d8d3 63bc
00000120: bac4 f8be 833e 683e ffef 0ebf 3673 523f
00000130: 15cf 9b3f f546 8f3f 0a81 15bd 4730 46be
00000140: f133 933e 7f67 f5be b3b8 f33d 3c9b 93be
00000150: f105 b63e 1dda 833e d600 d53e 917a aa3e
00000160: dce1 d83f a4b5 e9bf 6901 e3bf a1a0 593e
00000170: e7f1 6abf 43a8 85bf 3a2f 983e 6dfc 15bf
00000180: d04d ac3f 0aa3 4cbf 9c7d 8d3f 5f12 753d
00000190: 8d1d a73f 7a9b 62bf 6305 b1bf decb f1bf
000001a0: b3f1 323f d8ea d13d 7c24 0dbf 30b1 a73d
000001b0: b7a4 3f3e e8c3 143f 4132 0f3f 5167 d43e
000001c0: b644 9d3e f4c0 63be e81d f43e ef89 2b3e
000001d0: 5dcb 793f c38c d13f 9d57 e2be 29b2 cabf
000001e0: 9e01 63bf 9c18 11bf f9c8 c0bf 7bc9 45be
000001f0: 426c 8cbd d80b 91bf 80c7 8dbe a6c4 91be
00000200: 1c58 75bd 077f 9abe 1b12 123f 1ece 9fbe
00000210: c05c 6a3e 9f12 3f3e 41b1 70bf 0487 b2bf
00000220: 8a27 bb3e 7b25 8bbf 77c5 78bf acf1 b9be
00000230: e967 173f 8262 2a3e 47c1 c93e be34 22be
00000240: 903c f6be 5eaf 1e3d 6b7e 473d 71d1 af3e
00000250: 11f9 e43c 4754 6bbd 9eaf 6b3e 856e c23e
00000260: 4602 5e3e 8bf6 223f 03fc 693e bb51 843f
00000270: 8e42 373f f2c4 b73d 01ec 26bd f8ca b2bd
00000280: bb81 a3be b277 d43e a83f 7c3f 5b8f 853f
00000290: ff85 4fbe 7613 debd 6be6 0bbf f099 8b3f
000002a0: 21ae 5dbf c44e 903e 55d6 83bf 2a63 6d3f
000002b0: 11a6 87be a998 963f 183a 97be e823 6abe
000002c0: 18cd 40be 0738 64bf 6114 ad3d 9aaa cabf
000002d0: 03ea ca3e 2c25 68bf 81d5 5e3f 74db 213f
000002e0: d22d 6f3f 776e c4bd be9d d13d 4f12 4e3e
000002f0: 0274 a0be 49ad 63bc 770c 87be 4cdf 19be
00000300: 65ee e3bd 1762 bfbe 4d21 a4be 1494 003f
00000310: a3db 203e e920 a0be fba4 7e3f 3513 ee3d
00000320: cc0b 093f 0d9b 01bf 704a cb3d a41b 5e3e
00000330: b736 0ebe 0130 f13e 34a2 cabe 3132 ee3c
00000340: 34cd f23e 749a 893e 3ff9 47bf dec3 b13e
00000350: 940a 5abf 7666 443f af31 10c0 ca5f 1e3f
00000360: 39d8 f23e 2aaf 65bf cc29 09bc dc6f 8fbf
00000370: a6a8 0e3f df3f c5be c7bf c7bf 6be1 fdbe
00000380: 09ec 903d 8faa 29be 9793 95be 9f68 27bf
00000390: dd3b fcbd f3c3 463f ac23 1440 7745 a5bc
000003a0: 3c80 4e3e b436 4f3e cb79 2c3e 6efa 02c0
000003b0: db4f bf3e 7a79 6f3f be36 5bbf 3fd4 d53d
000003c0: 810f 773f dd87 95bf 9080 aabe 918f c3be
000003d0: cf08 6cbf c1ab febe 191e 86bd 2f1b 7dbf
000003e0: cc63 e3be d268 953e f159 28bf 6140 90be
000003f0: 7284 06be 8fbb 5abf 64a9 c5be 0dc3 c83e
1.189533 0.19930185 -0.91787815 2.212616 -1.1096882 -2.3913524 -0.6834252 0.16924979
1.1829228 0.56735796 0.17791113 -1.9380931 -1.0735507 0.5524987 -0.88559914 0.9178871
1.3635353 1.1998968 -0.2857858 1.9687793 0.32581174 0.38723537 0.2054943 0.9796942
0.35282063 0.02132584 0.3626975 -0.46204388 0.51036173 -0.68656594 1.6659867 0.65755177
-0.9261887 1.6295854 0.13520648 0.12695263 -0.36224234 -0.088369176 -1.2157273 0.73399705
-0.77160513 -0.58282715 0.5401616 -1.6571562 1.7523993 -0.86806345 0.41011354 0.03822557
0.044044223 0.72488624 -1.9377902 -0.7839632 0.49271336 -1.4054035 0.08809904 1.2349796
-0.33221897 -0.22931427 0.79208136 -0.7039702 0.075419396 0.082113855 -0.9500449 1.5726008
-0.2421599 -0.3232245 -1.7776945 0.9997514 -0.22838765 0.42767674 0.22540617 -0.013905488
-0.4858759 0.22680096 -0.55834955 0.8220705 1.2172571 1.1193529 -0.036500014 -0.19354354
0.28750566 -0.47930524 0.11900463 -0.28829372 0.35551408 0.25752345 0.416022 0.33296636
1.6943927 -1.8258557 -1.7734805 0.21252681 -0.91775364 -1.0441974 0.2972353 -0.58588296
1.3461246 -0.7993628 1.1053958 0.059831973 1.3055893 -0.8851849 -1.3829769 -1.889034
0.69900054 0.10249871 -0.55133796 0.08188093 0.18715177 0.5811143 0.55936056 0.41485074
0.30716485 -0.22241575 0.47679067 0.16751836 0.9757593 1.6371082 -0.4420747 -1.583562
-0.8867434 -0.56678176 -1.5061332 -0.1931514 -0.06856586 -1.133174 -0.2769127 -0.28470343
-0.05989848 -0.3017504 0.57058877 -0.31211942 0.22886944 0.18659447 -0.9402047 -1.3947453
0.36553603 -1.0870813 -0.9717631 -0.36317194 0.5914293 0.1663914 0.3940527 -0.15840432
-0.4809308 0.038741462 0.048704546 0.3433948 0.027950795 -0.05745342 0.23016211 0.37974945
0.21680555 0.63657445 0.22850041 1.0337442 0.7158593 0.08973111 -0.040752415 -0.087301195
-0.31934914 0.4149757 0.9853463 1.0434374 -0.20265959 -0.10843556 -0.54648465 1.0906353
-0.86593825 0.28185093 -1.0299784 0.9272944 -0.26493886 1.1765338 -0.2953651 -0.2286526
-0.18828237 -0.8914799 0.084511526 -1.5833313 0.39631662 -0.9068172 0.8704453 0.63225484
0.9342929 -0.09591382 0.10235165 0.20124172 -0.31338507 -0.013896295 -0.26376697 -0.15026587
-0.111294545 -0.37379524 -0.32056656 0.5022595 0.15708785 -0.31275108 0.9947049 0.11624757
0.53533626 -0.50627214 0.09926307 0.21690232 -0.1388806 0.47106937 -0.39576876 0.029076668
0.47422183 0.2687565 -0.78114694 0.34719747 -0.8517239 0.76718843 -2.2530324 0.6186491
0.4743059 -0.89720404 -0.008371782 -1.1206012 0.5572609 -0.38525292 -1.5605401 -0.49586043
0.0707627 -0.16568969 -0.29214165 -0.65394014 -0.123161055 0.77642745 2.3146772 -0.020174725
0.20166105 0.20235711 0.16843335 -2.046535 0.37365612 0.93544734 -0.85630405 0.10440873
0.9650803 -1.1682087 -0.3330121 -0.3819547 -0.9220094 -0.49740413 -0.065487094 -0.98869604
-0.44412076 0.29181534 -0.6576224 -0.28174117 -0.13136461 -0.8544244 -0.38605797 0.39211312

fc3.bias f4 [4]
00000000: 949b 31be e814 c3be 3729 2f3d 6ad9 46bd
-0.17344505 -0.38101888 0.042763915 -0.048547186
