checkpoint_critic.pth (torch_old, 169983 bytes, 5 tensors)

fc1.weight f4 [256, 33]
0	0xbcc7a824	-0.024372168
1	0xbe057a94	-0.13035041
2	0xbe68a343	-0.2271853
3	0xbd899e05	-0.06719593
4	0x3cb4004b	0.021972796
5	0x3d9e5bd5	0.07732359
6	0x3c927ab4	0.017880775
7	0x3b8979b6	0.0041954173
8	0x3eb9bab3	0.36275253
9	0xbed68c8c	-0.41904104
10	0x3d58952d	0.05287664
11	0x3d1b254c	0.037877366
12	0x3c46c8c4	0.012132827
13	0x3c86da2b	0.016461452
14	0x3d9072ee	0.07053171
15	0x3dda4feb	0.106597744
16	0x3c7b9be2	0.01535699
17	0xbda050a6	-0.078278825
18	0x3dfd228a	0.123601034
19	0x3c7ef2b3	0.015560794
20	0xbc1929c8	-0.00934834
21	0x3dc8ac8c	0.09798536
22	0x3e2e9e82	0.17052653
23	0xbd2e332f	-0.04252928
24	0x3ac01a0e	0.0014656202
25	0xbd405b2a	-0.04696194
26	0x3b943a42	0.0045235464
27	0x3e5921df	0.21204327
28	0x3d5b56df	0.053549644
29	0xbd4e6a80	-0.050394535
30	0xbe8be93e	-0.27326387
31	0x3d2599be	0.040429823
32	0x3e9a78b9	0.3017023
33	0x3daf8803	0.08570864
34	0x3dd09fd4	0.10186735
35	0xbd72644f	-0.059177693
36	0x3ddb9b5c	0.10722992
37	0x3e12ef97	0.14349209
38	0xbb334bb7	-0.0027358362
39	0x3d9f996a	0.07792933
40	0x3db03cbf	0.086053364
41	0xbe72fa34	-0.23728257
42	0x3e482d5d	0.19548555
43	0x3be840dc	0.00708781
44	0x3d6b4341	0.057437185
45	0x3cae710f	0.021294145
46	0x3d8d267f	0.06892108
47	0xbd7103d8	-0.058841556
48	0x3e27a0e2	0.16369966
49	0x3d291871	0.041283075
50	0xbca5d0a4	-0.02024109
51	0x3ce5a88e	0.028034475
52	0x3b29e6f5	0.0025925015
53	0x3bb47513	0.0055071204
54	0xbc1ed23c	-0.0096936785
55	0xbcbda2c5	-0.023148904
56	0xbdd83c83	-0.10558417
57	0xbd865a5e	-0.06560205
58	0xbd6d10a6	-0.057877205
59	0xbe170c86	-0.14750871
60	0x3e404912	0.18777874
61	0xbdbc2c05	-0.091880836
62	0x3ca3f630	0.020014852
63	0xbe4eacca	-0.20183101
64	0x3b9d9aa0	0.0048096925
65	0x3f009c9b	0.5023896
66	0x3b91a377	0.0044445354
67	0x3d1abb1f	0.03777611
68	0x3c8bb6b4	0.017054893
69	0xbc080ade	-0.008303372
70	0x3dfc29b9	0.123126455
71	0x3cf43189	0.029808776
72	0x3d712856	0.058876358
73	0xbce166eb	-0.027514895
74	0xbd9cadea	-0.07650359
75	0xbbcae795	-0.0061921575
76	0xbc2c6b46	-0.010523623
77	0x3c81e345	0.01585544
78	0xbcecaa4f	-0.028889803
79	0xbcad7d49	-0.021177905
80	0x3ba354d9	0.00498448
81	0xbd59c0a3	-0.05316223
82	0x3ba16c3d	0.004926233
83	0x3d0a6134	0.033784106
84	0x3d98de66	0.07464294
85	0x3d38d886	0.045128368
86	0xbc2e33da	-0.01063248
87	0x3d3a7ab7	0.045527186
88	0xbca166c4	-0.019702323
89	0x3be3279d	0.0069322125
90	0x3ba73080	0.005102217
91	0xbc9ecc37	-0.019384487
92	0xbdaedad7	-0.08537834
93	0x3e79a657	0.2437986
94	0xbd087543	-0.033314954
95	0xbb512e40	-0.0031918436
96	0xbe34e1e9	-0.17664303
97	0xbd5e991e	-0.054345243
98	0x400a3d73	2.1600006
99	0xbe25b28c	-0.16181391
100	0xbca31d8f	-0.019911556
101	0x3eacbfef	0.33740184
102	0x3e1d6749	0.15371431
103	0x3d1d71d0	0.03843862
104	0x3d8c8261	0.06860805
105	0x3dd1d6a0	0.102460146
106	0x3d7cd7f4	0.061729386
107	0x3e2a24c6	0.1661559
108	0x3d6b1189	0.05738977
109	0xbd5ff169	-0.054673586
110	0x3d854877	0.06507962
111	0x3e065201	0.1311722
112	0x3e33dc56	0.1756452
113	0x3e7efe5b	0.24901716
114	0xbe3ec997	-0.18631588
115	0xbc682631	-0.014169262
116	0xbdc053d2	-0.093909875
117	0xbe0850aa	-0.13312021
118	0x3d91a4eb	0.07111534
119	0xbca55143	-0.02018035
120	0xbc9e36d9	-0.019313263
121	0xbbdf402b	-0.0068130693
122	0x3d6e8af2	0.058237977
123	0x3c68955d	0.014195767
124	0x3d13642f	0.035984214
125	0xbda46969	-0.08027918
126	0x3e7095d6	0.23494658
127	0x3de61efc	0.112363786
128	0xbccaa0b8	-0.02473484
129	0xbe073bfc	-0.13206476
130	0xbc33c680	-0.010972619
131	0x3e3d926f	0.18512891
132	0x3c5dac3e	0.013529835
133	0xbf0437f8	-0.516479
134	0x3e1c8d13	0.1528819
135	0xbc913906	-0.017727386
136	0xbdb459f8	-0.08806223
137	0xbe736c05	-0.23771675
138	0x3db3f0cb	0.08786162
139	0x3d083a92	0.033258982
140	0xbdc9b23d	-0.098484494
141	0xbe37323f	-0.17890261
142	0x3d0e1052	0.034683533
143	0xbd29370b	-0.04131226
144	0x3d55f3f7	0.052234616
145	0xb9455e1f	-0.00018822447
146	0x3edb6ebc	0.4285792
147	0xbd2b216b	-0.041779917
148	0xbc19339b	-0.009350683
149	0x3db67a90	0.08910096
150	0xbdd4a6d1	-0.1038338
151	0x3d3129db	0.043252807
152	0x3c687048	0.014186926
153	0xbccad397	-0.024759097
154	0xbc763e76	-0.01502954
155	0xbd9d5aff	-0.07683372
156	0x3e0abbf6	0.13548264
157	0xbd86d68b	-0.065838896
158	0xbde06d3f	-0.10958337
159	0x3e8238d5	0.25433984
160	0xbdcb5abd	-0.09929416
161	0x3c92d958	0.017925903
162	0xbe861221	-0.26185706
163	0x3c88a194	0.016678609
164	0xbeb2f01e	-0.3494882
165	0x3e2c3bb8	0.16819656
166	0xbcf25df0	-0.029585809
167	0x3e3b929c	0.18317646
168	0x3d0e1297	0.034685697
169	0xbd30b08b	-0.043137114
170	0x3d8a904a	0.06765802
171	0x3dfebb2e	0.124380454
172	0xbb4429ef	-0.002993222
173	0xbe16f86a	-0.147432
174	0xbd11926f	-0.03554004
175	0x3d3fc669	0.046820078
176	0xbd087e32	-0.033323474
177	0x3d08b87d	0.033379067
178	0xbd3f5a17	-0.046716776
179	0x3e115d91	0.14195849
180	0xbdb1f917	-0.08690088
181	0x3cb5c37c	0.02218794
182	0xbdfd13e6	-0.12357311
183	0x3dbcab5d	0.092123725
184	0x3c738ad7	0.014864645
185	0x3c9ef003	0.019401556
186	0xbcec0b60	-0.028814018
187	0x3c70356e	0.014661176
188	0xbcb3fac5	-0.021970162
189	0x3d93ecac	0.07222876
190	0x3c9c4a7d	0.019078488
191	0xbe4d89a7	-0.20072041
192	0x3e89e7d1	0.26934674
193	0x3dfb8c79	0.122826524
194	0x3d441aa4	0.04787697
195	0xbe87d955	-0.26533
196	0x3c1980c8	0.009369083
197	0x3f5701fc	0.839874
198	0x3cecf7cb	0.02892675
199	0x3e90dcfb	0.28293595
200	0x3c86a18d	0.016434455
201	0xbd938023	-0.072021745
202	0x3c88b044	0.016685612
203	0xbc83474b	-0.016025206
204	0xbe0e42a4	-0.13892609
205	0xbd18ee52	-0.037336655
206	0xbda1afff	-0.07894897
207	0xbca2d24b	-0.019875666
208	0xbbf99084	-0.0076161046
209	0x3d146467	0.036228564
210	0xbd1bfceb	-0.038083
211	0xbc2d1eea	-0.0105664525
212	0xbd5fc635	-0.054632384
213	0x3dd631dd	0.104587294
214	0x3d2e327f	0.042528626
215	0x3b607639	0.0034250154
216	0x3d503338	0.050830096
217	0x3c7c13aa	0.015385548
218	0x3c41574a	0.0118005965
219	0x3d343226	0.043993138
220	0x39d4e4bf	0.0004060622
221	0xbde7a17e	-0.11310099
222	0xbc65564d	-0.0139976265
223	0x3df95df6	0.12176125
224	0xbe2bd30e	-0.1677973
225	0x3e37843e	0.1792154
226	0xbe0ee471	-0.13954331
227	0xbd438164	-0.04773082
228	0xbe523a78	-0.20530117
229	0x3abe9d80	0.0014542788
230	0xbf743d20	-0.9540577
231	0x3d8a7fc2	0.06762649
232	0x3dc9537a	0.09830375
233	0x3d2b256b	0.04178373
234	0xbcb62725	-0.022235462
235	0x3d626a1a	0.055276968
236	0xbd986a04	-0.07442096
237	0x3dcb26c1	0.09919501
238	0x3989817f	0.00026227158
239	0xbd588744	-0.052863374
240	0x3df19571	0.11796082
241	0x3c453ca3	0.012038383
242	0x3db929e4	0.09041193
243	0x3d2146df	0.03937423
244	0x3d255208	0.040361434
245	0x3d011589	0.03151468
246	0x3d3fac6d	0.046795297
247	0xbd38e4a2	-0.045139916
248	0x3c3919ea	0.011297682
249	0xbcdf4425	-0.027254174
250	0x3d49aa94	0.04923494
251	0x3c820de0	0.015875757
252	0x3cd01012	0.025398288
253	0x3c37bdfb	0.0112147285
254	0xbde3bf29	-0.11120445
255	0x3bff8ce1	0.0077987765

fc1.bias f4 [256]
0	0xbe353003	-0.17694096
1	0xbdab45fa	-0.08362956
2	0xbe7ea8b0	-0.24869037
3	0xbd174d7d	-0.036939133
4	0xbe699ed8	-0.228145
5	0xbed25b8d	-0.41085473
6	0xbe9e5897	-0.30926964
7	0x3e35d3d0	0.17756581
8	0xbe491938	-0.19638526
9	0xbd45f424	-0.048328534
10	0xbecb197e	-0.39667886
11	0xbe96d082	-0.29455954
12	0x3d780871	0.060554925
13	0xbe4d7700	-0.20064926
14	0xbe561c95	-0.2090934
15	0xbe32a310	-0.17445016
16	0xbebb3c66	-0.36569518
17	0xbef7af84	-0.48376095
18	0x3d91c2be	0.07117222
19	0xbe99fbd0	-0.3007493
20	0xbe6f6395	-0.23377831
21	0x3db024c1	0.0860076
22	0xbe705de4	-0.23473316
23	0xbdf8a30d	-0.121404745
24	0xbe6ad8a2	-0.22934201
25	0xbea0e719	-0.31426314
26	0xbe170c74	-0.14750844
27	0xbdadd2cd	-0.08487473
28	0xbdb22e73	-0.08700266
29	0x3bd39e08	0.006458048
30	0xbb85ed50	-0.0040871277
31	0xbe2d8fe4	-0.16949421
32	0xbe72ee5e	-0.23723742
33	0xbeab0142	-0.33399397
34	0xbea1d94d	-0.316111
35	0xbeb46305	-0.35231796
36	0x3da75cc0	0.081719875
37	0xbe3409c5	-0.17581852
38	0xbeb364c5	-0.3503782
39	0xbcc30ebd	-0.023810739
40	0xbe8389af	-0.25690982
41	0xbe5d51f6	-0.21613297
42	0xbe41239b	-0.18861239
43	0xbe3b59bf	-0.18295954
44	0xbe5fa813	-0.21841459
45	0xbde43ae2	-0.111440435
46	0xbe957410	-0.2919011
47	0xbeb62609	-0.35575894
48	0x3ccc0b3a	0.024907697
49	0xbeea90d0	-0.45813608
50	0xbed9dd56	-0.42551678
51	0xbdacc14f	-0.08435308
52	0xbef3fbf0	-0.4765315
53	0xbdd1c1bc	-0.1024203
54	0xbeaa826d	-0.33302632
55	0xbe959bde	-0.2922048
56	0xbe895755	-0.26824442
57	0xbe8f7d58	-0.28025317
58	0xbea5adb1	-0.3235908
59	0xbe2830f1	-0.1642492
60	0xbedf88ed	-0.43659154
61	0xbbdc9ed6	-0.006732802
62	0xbeb7cef2	-0.35900074
63	0xbeba3cd6	-0.3637454
64	0xbe5ed2e3	-0.21760134
65	0xbe269ac6	-0.16269979
66	0xbed261db	-0.41090283
67	0x3f28c473	0.6592476
68	0xbe1ff278	-0.15619838
69	0xbecf849c	-0.4053086
70	0xbe3034ed	-0.1720769
71	0xbdc30bdc	-0.09523746
72	0xbed1705e	-0.40906042
73	0xbef74fdc	-0.48303115
74	0x3ec4f74c	0.38469923
75	0xbe634dec	-0.22197694
76	0x3d9e22ce	0.07721482
77	0xbe86eee9	-0.2635415
78	0x3dc33070	0.09530723
79	0xbe7845ae	-0.2424533
80	0xbe60bb89	-0.21946539
81	0xbe2e5d1a	-0.17027703
82	0xbd50591a	-0.050866224
83	0xbdbb63df	-0.09149908
84	0xbe158191	-0.14600207
85	0xbea2f3da	-0.3182667
86	0xbd4d5f5a	-0.050139762
87	0xbe163932	-0.14670256
88	0xbea3c92d	-0.31989422
89	0x3df90c59	0.12160558
90	0xbe5a9ee7	-0.21349679
91	0x3d80ae26	0.06283216
92	0xbe68cd43	-0.22734551
93	0xbecad8a3	-0.39618406
94	0xbee43d1d	-0.44577876
95	0x3dec13e1	0.11527229
96	0xbc7a250f	-0.0152676245
97	0xbe3db246	-0.18525037
98	0xbe872e1b	-0.26402363
99	0xbc826360	-0.015916526
100	0xbe4e9615	-0.20174439
101	0x3bd916f5	0.006625051
102	0xbd85824c	-0.06518993
103	0xbecf76c6	-0.40520304
104	0xbede0524	-0.43363297
105	0xbeba5938	-0.36396194
106	0xbe9a3c2c	-0.30124032
107	0xbeae13e2	-0.33999544
108	0x3bb65fef	0.0055656354
109	0xbf184234	-0.5947602
110	0xbda23070	-0.07919395
111	0x3e0414b8	0.12898529
112	0xbe436601	-0.1908188
113	0xbe76c96f	-0.24100278
114	0x3dd18449	0.102303095
115	0xbe4a5825	-0.19760187
116	0xbe3933b8	-0.18086135
117	0xbee16fda	-0.44030648
118	0xbec2c9a7	-0.38044474
119	0xbeb95d0f	-0.3620381
120	0x3e1353e1	0.14387466
121	0xbd3571d9	-0.044298027
122	0xbd973df5	-0.07384864
123	0xbd2ecaa8	-0.042673737
124	0xbea8ae4c	-0.32945478
125	0x3ea0d842	0.31414992
126	0xbe368f28	-0.17828047
127	0x3c1fc072	0.009750472
128	0xbdfd8517	-0.123789005
129	0xbe5df63a	-0.21675959
130	0xbe029547	-0.12752257
131	0xbea917b9	-0.3302591
132	0xbe830ea1	-0.25597098
133	0xbd6f6145	-0.058442373
134	0xbec9b4ba	-0.39395696
135	0xbea9b32a	-0.33144504
136	0xbe8e9ba7	-0.27853128
137	0xbc8db405	-0.017297754
138	0xbe6eff1e	-0.23339507
139	0xbf117916	-0.5682539
140	0x3d712ee1	0.058882598
141	0xbf2014aa	-0.6253153
142	0xbee5c80e	-0.44879192
143	0xbe3aa95a	-0.18228665
144	0x3d06edf9	0.032941792
145	0xbe8a6fb2	-0.27038342
146	0xbdcc5a5a	-0.09978171
147	0xbe241afb	-0.16025917
148	0xb9eba768	-0.0004494742
149	0x3da50e92	0.0805942
150	0xbe7faf88	-0.24969304
151	0xbddb65e3	-0.10712793
152	0xbea343b6	-0.31887597
153	0xbe45cd1b	-0.19316523
154	0xbdfdb126	-0.12387304
155	0xbe55f1c3	-0.20893006
156	0x3cc094dd	0.023508484
157	0xbec31d5e	-0.38108343
158	0xbd81f5b5	-0.06345693
159	0xbedbcaa8	-0.42928052
160	0xbd844002	-0.06457521
161	0xbee95f08	-0.45580316
162	0xbeaeb262	-0.3412047
163	0xbeff0443	-0.4980794
164	0xbeddd4b4	-0.43326342
165	0xbe2edf3d	-0.17077346
166	0x3d491254	0.049089745
167	0xbe856b23	-0.260583
168	0xbe4d99eb	-0.20078246
169	0xbe155780	-0.1458416
170	0xbe8b34e1	-0.2718878
171	0x3d7c1553	0.061543774
172	0xbe9d63d4	-0.30740225
173	0x3e03bea3	0.12865691
174	0xbeb28347	-0.34865782
175	0x3bb0a96b	0.00539129
176	0xbd33b60e	-0.043874793
177	0xbe82b2be	-0.25526994
178	0x3f10922e	0.5647305
179	0xbeb38ee2	-0.35069948
180	0x3e8fbd60	0.2807417
181	0xbe55a6ef	-0.20864461
182	0xbf33a753	-0.7017719
183	0xbdbfd028	-0.093658745
184	0x3e184c22	0.14872792
185	0xbe4fd407	-0.20295726
186	0xbeabfe3c	-0.33592403
187	0xbeda321e	-0.4261636
188	0xbd65bfe3	-0.0560912
189	0x3d508a3c	0.05091308
190	0xbedc5c8a	-0.43039352
191	0xbe532912	-0.20621136
192	0xbe7bc4dc	-0.24586815
193	0xbdc84fbb	-0.097808324
194	0xbe2970c5	-0.16546924
195	0xbe9e351c	-0.30899894
196	0xbea2b4ab	-0.31778464
197	0xbe34ee45	-0.17669018
198	0xbe92f3c5	-0.28701606
199	0xbed87ea9	-0.42284134
200	0xbef2e47e	-0.4743995
201	0xbe0cf4b4	-0.13765222
202	0xbe60cbc7	-0.21952735
203	0xbea28c20	-0.31747532
204	0xbe38d88c	-0.18051356
205	0xbe06d215	-0.13166077
206	0xbd86e6d2	-0.06586994
207	0x3dc9c29a	0.098515704
208	0xbe712edc	-0.23553032
209	0xbe723730	-0.23653865
210	0x3e857493	0.26065502
211	0xbd1c8f26	-0.038222454
212	0xbe6f3364	-0.23359448
213	0xbea4dd7b	-0.32200226
214	0xbe12f9f7	-0.14353167
215	0x3e8ec4a0	0.27884388
216	0xbe8d8a9b	-0.2764481
217	0xbc342373	-0.01099478
218	0xbdf30473	-0.11866083
219	0xbded7454	-0.115944535
220	0xbdd3af6c	-0.103361934
221	0xbe8dc86d	-0.27691975
222	0xbef56c7c	-0.4793433
223	0xbeb8c925	-0.3609096
224	0xbe03832d	-0.12843008
225	0xbe84c39d	-0.2593049
226	0xbe7c086e	-0.2461259
227	0x3d5965dc	0.053075656
228	0xbe4f3f19	-0.20238914
229	0xbdf2292e	-0.11824261
230	0xbeaaf4bb	-0.3338984
231	0xbe20cbb0	-0.157027
232	0xbeba6795	-0.36407152
233	0xbe47d2b2	-0.19513968
234	0x3e2a78c3	0.1664763
235	0xbdf738a9	-0.12071354
236	0xbca98996	-0.020695489
237	0x3db44363	0.088019155
238	0x3d2eade0	0.04264629
239	0xbf04a9d3	-0.5182163
240	0xbe924223	-0.28566083
241	0xbec83f22	-0.39110667
242	0x3d9d7597	0.07688444
243	0xbe1a1322	-0.15046361
244	0xbe6260cc	-0.22107238
245	0x3ebe4c26	0.37167472
246	0x3ec4d787	0.38445684
247	0xbe8fc948	-0.28083253
248	0xbdf6ef87	-0.12057405
249	0xbe9057f5	-0.28192106
250	0x3e40c969	0.18826832
251	0xbea48585	-0.32133117
252	0xbdcceb10	-0.10005772
253	0xbee9a03c	-0.45630062
254	0xbd491db4	-0.049100593
255	0xbe8dba05	-0.27680984

fc2.weight f4 [128, 260]
0	0x3b5d128f	0.0033732986
1	0x3d4963d5	0.049167473
2	0x3db914dd	0.090371825
3	0xbe379744	-0.17928797
4	0xbd8a94a3	-0.067666315
5	0xbe23a098	-0.1597923
6	0xbd1a6c1b	-0.037700754
7	0x3e4d7e82	0.2006779
8	0x3d86504f	0.065582864
9	0x3cae83cb	0.021303078
10	0xbe35c556	-0.17751059
11	0xbd5f5eef	-0.054533895
12	0xbe39c1ed	-0.18140383
13	0x3ea57f9e	0.32323927
14	0x3b583ea8	0.003299633
15	0x3e5182cb	0.2046005
16	0x3e827922	0.25483042
17	0x3e3133ed	0.17304964
18	0x3c9a24db	0.018816402
19	0xbed3a00d	-0.41333047
20	0xbaba7c91	-0.0014227798
21	0x3e26d936	0.16293797
22	0xbe1e34dc	-0.15449852
23	0x3de98457	0.11402195
24	0x3daee73e	0.085402
25	0x3df1e545	0.11811308
26	0xbe880555	-0.26566568
27	0x3ce54857	0.027988596
28	0x3e03ed93	0.12883596
29	0x3d622a8e	0.055216365
30	0x3d54c184	0.051942363
31	0x3d899e5a	0.06719656
32	0x3e707806	0.23483285
33	0xbcc76dde	-0.024344381
34	0xbe6adf38	-0.22936714
35	0x3e689f6b	0.22717063
36	0x3d33a8b7	0.04386207
37	0x3d099d69	0.033597384
38	0xbdb98e2e	-0.09060322
39	0x3c9ec8e6	0.019382905
40	0xbdd6013a	-0.10449453
41	0xbe96069e	-0.29301924
42	0x3df2fe79	0.11864943
43	0xbc3f7b08	-0.011687048
44	0x3d2726b6	0.040808402
45	0xbe80c38e	-0.25149196
46	0x3d80f55a	0.06296797
47	0xbdcfa24a	-0.10138376
48	0x3c557af5	0.0130298035
49	0xbe9bc5bb	-0.30424294
50	0xbe83bf46	-0.25731868
51	0x3ebe2490	0.3713727
52	0x3ea40443	0.320345
53	0xbe10d82b	-0.14144962
54	0xbdb3395c	-0.08751175
55	0x3d8a6c6b	0.0675896
56	0x3e99d178	0.30042624
57	0x3d6d97a0	0.05800593
58	0xbe848370	-0.2588153
59	0xbd78a8a4	-0.060707703
60	0xbe36b937	-0.17844091
61	0x3e5e4b8f	0.21708511
62	0xbe04687e	-0.12930486
63	0x3e83f524	0.25772965
64	0x3d7b6aa1	0.061380986
65	0xbdcc86c2	-0.099866405
66	0x3e6106b3	0.21975212
67	0xbd3ef7b8	-0.04662296
68	0x3e34cc1f	0.17655991
69	0x3bec2429	0.007206459
70	0xbe661612	-0.22469357
71	0xbe3a7728	-0.18209517
72	0x3daf96a5	0.08573655
73	0xbe7b1d5c	-0.24522918
74	0x3e0cb283	0.13739972
75	0x3e19e4fd	0.15028758
76	0x3c9363c0	0.0179919
77	0xbea83ec3	-0.32860383
78	0xbe36e5fc	-0.1786117
79	0xbddf461b	-0.109020434
80	0xbdee0011	-0.116211064
81	0xbdfcb33e	-0.12338875
82	0xbcfa7b20	-0.030576289
83	0xbba5a76d	-0.005055359
84	0x3e73f445	0.2382365
85	0xbe23b826	-0.15988216
86	0x3d43c922	0.047799237
87	0x3e0179c4	0.12644106
88	0xbe1e8c08	-0.15483105
89	0x3ddcd41b	0.107826434
90	0x3de622fa	0.1123714
91	0x3e31ff72	0.17382601
92	0xbea0690b	-0.3133014
93	0xbc910dc2	-0.017706756
94	0x3e33a4de	0.1754336
95	0x3dea164e	0.114300355
96	0x3dd9374a	0.10606249
97	0x3eb7e984	0.35920346
98	0xbeb3882c	-0.35064828
99	0x3d915224	0.07095745
100	0x3d7dfe05	0.06200983
101	0x3dbccdb2	0.09218921
102	0xbde7eb80	-0.11324215
103	0xbe30cef7	-0.17266451
104	0x3d2f66ee	0.04282277
105	0xbe1c50bf	-0.15265177
106	0x3dabd0c5	0.08389429
107	0xbe0f521e	-0.13996169
108	0x3e1faeac	0.15593976
109	0xbe04bf2f	-0.12963556
110	0xbd3e7528	-0.046498448
111	0x3daef0c8	0.08542019
112	0xbe0bbfd6	-0.13647398
113	0xbe6e364d	-0.23262902
114	0x3cc85c14	0.024457969
115	0xbe551ff8	-0.20812976
116	0xbde11555	-0.10990397
117	0xbc9b44e3	-0.018953746
118	0xbe0200f4	-0.12695676
119	0x3e1012e0	0.140697
120	0x3e6663cc	0.22499007
121	0xbbc1b715	-0.0059117177
122	0x3e16f58b	0.14742105
123	0xbe155a9c	-0.14585346
124	0xbd2a8f5c	-0.041640624
125	0x3dec4bfe	0.11537932
126	0x3e2213a0	0.15827799
127	0xbe803ee9	-0.25047997
128	0x3be0c9d9	0.0068599996
129	0xbe91425f	-0.2837095
130	0xbe19317a	-0.1496028
131	0xbe015e85	-0.12633713
132	0xbd05c4bb	-0.03265832
133	0x3e254ef7	0.16143404
134	0x3e93142d	0.2872633
135	0xbd97a951	-0.074053414
136	0xbd724cdb	-0.059155326
137	0x3c8be060	0.017074764
138	0xbc921f35	-0.017837146
139	0x3daaba92	0.08336367
140	0x3e4b491e	0.1985211
141	0xbe88024b	-0.2656425
142	0x3a30a1cb	0.0006737976
143	0xbe6be93b	-0.23038189
144	0x3e6a3cc8	0.22874749
145	0xbcb1675b	-0.021655729
146	0xbdf27610	-0.11838925
147	0x3cead124	0.02866418
148	0x3e3823f2	0.17982462
149	0x3d5358a2	0.0515982
150	0x3de813e4	0.11331919
151	0x3d5ddd0a	0.054165877
152	0x3e077a37	0.13230215
153	0x3cb1134a	0.021615643
154	0x3d867cd7	0.0656678
155	0xbdfb110a	-0.12259109
156	0xbe55ca1f	-0.20877884
157	0x3ec21df2	0.3791347
158	0x3dfc07f3	0.12306204
159	0x3d838e73	0.064236544
160	0xbda6e67f	-0.081494324
161	0x3d993070	0.07479942
162	0xbdf7dcc4	-0.121026546
163	0xbdd1d2c6	-0.1024528
164	0xbd6567dc	-0.05600725
165	0xbee005cb	-0.4375442
166	0x3e1c61eb	0.15271728
167	0xbc8467f8	-0.016162857
168	0xbe65d7e6	-0.2244564
169	0xbd561afb	-0.052271824
170	0xbe835de1	-0.2565756
171	0xbe1d9c86	-0.1539174
172	0xbe6021bf	-0.21887873
173	0xbdc894d6	-0.09794013
174	0x3d13c3f9	0.036075566
175	0xbdd5a34e	-0.104315385
176	0x3e291067	0.16510163
177	0x3e18319f	0.14862679
178	0x3ca24afb	0.019811144
179	0x3d5fcbdb	0.05463777
180	0x3cd1dc3c	0.025617711
181	0x3d7976a2	0.060904153
182	0x3dce38ef	0.10069453
183	0xbd1d7d99	-0.038449857
184	0xbdb831a6	-0.08993845
185	0x3e454dde	0.19267985
186	0x3c3ae2a7	0.011406577
187	0x3dea08f5	0.1142749
188	0x3da2df47	0.07952743
189	0x3e025e0e	0.12731192
190	0xbe25c870	-0.16189742
191	0x3cfec69f	0.03110057
192	0x3dc4d0ef	0.096101634
193	0x3dd5640a	0.104194716
194	0xbd3f9bb7	-0.04677936
195	0xbe2c7fc8	-0.1684562
196	0x3e248cb3	0.16069297
197	0xbe3a17bd	-0.18173118
198	0x3d489eea	0.048979677
199	0xbe6200c8	-0.2207061
200	0x3e18bf7b	0.14916794
201	0x3e2ad799	0.16683806
202	0x3e3d5187	0.18488131
203	0xbe66a1f6	-0.2252272
204	0xbe643e8a	-0.22289482
205	0x3cc78a67	0.024357988
206	0xbb909d56	-0.004413287
207	0x3c8bdfda	0.017074514
208	0xbe555251	-0.20832182
209	0x3e443c58	0.19163644
210	0xbde1da90	-0.110280156
211	0x3d6baf0d	0.05753999
212	0xbe557ed2	-0.2084916
213	0x3d184d76	0.037183248
214	0x3e0c695e	0.1371207
215	0xbcb541af	-0.022126047
216	0xbbeb3c9e	-0.007178857
217	0xbc8bc706	-0.017062675
218	0x3dbb8038	0.09155315
219	0x3c622eca	0.013805101
220	0x3de2d4ff	0.11075782
221	0xbe79c677	-0.24392115
222	0xbe280fc3	-0.16412263
223	0x3c9898fc	0.018627636
224	0xbe157526	-0.1459547
225	0x3dec8d45	0.115503825
226	0xbdf5eeb4	-0.1200842
227	0x3d1fd9f6	0.039026223
228	0x3cf210aa	0.029548962
229	0xbcf78ada	-0.030217577
230	0x3d7bec62	0.06150473
231	0x3e206840	0.15664768
232	0x3e0099a9	0.12558617
233	0xbd03188e	-0.03200584
234	0xbde732a1	-0.112889536
235	0x3dee8e2f	0.11648213
236	0x3e4fb0d9	0.20282306
237	0x3d940284	0.07227042
238	0x3d90ee23	0.07076671
239	0xbea957f1	-0.33074906
240	0xbdcddad8	-0.10051507
241	0xbd8a0054	-0.06738344
242	0x3daf1ae8	0.08550054
243	0x3e0e3df3	0.13890819
244	0x3d3f2efa	0.04667566
245	0x3dfc2e96	0.12313573
246	0xbe074e89	-0.13213553
247	0x3e61f50b	0.22066133
248	0x3cc9ced9	0.024634765
249	0x3c92b7b9	0.017909871
250	0xbd63b8a7	-0.05559602
251	0x3d91c20a	0.07117088
252	0x3d8dd91b	0.06926175
253	0xbed7d698	-0.4215591
254	0x3e1b07d6	0.15139708
255	0x3e857a1c	0.26069725

fc2.bias f4 [128]
0	0xbee81611	-0.45329335
1	0xbe8f375e	-0.2797193
2	0x3e91c9fc	0.28474414
3	0xbea6f796	-0.32610768
4	0x3ea955a6	0.33073157
5	0xbe1858fa	-0.14877692
6	0x3f02fbfe	0.5116576
7	0x3e8b4a3f	0.27205083
8	0x3ee21c13	0.44162044
9	0x3ec3e513	0.38260707
10	0xbe8a7eed	-0.27049962
11	0x3f00fa2e	0.50381744
12	0xbecd82c5	-0.40138832
13	0xbe5532ad	-0.20820113
14	0xbea57644	-0.32316792
15	0xbee37275	-0.4442326
16	0x3f0bfb1b	0.5468003
17	0x3e6aa255	0.22913487
18	0x3e423b14	0.18967849
19	0x3e8d244c	0.27566755
20	0x3f3080a3	0.68946284
21	0x3f0cfd82	0.5507432
22	0x3e7b3c03	0.24534611
23	0xbed4bf89	-0.4155238
24	0x3f09a0a2	0.5376073
25	0xbe2f8de0	-0.17143965
26	0x3f062125	0.52394325
27	0x3e96a262	0.29420763
28	0x3ec01393	0.37514934
29	0xbefc329d	-0.49257365
30	0x3ed44a97	0.41463158
31	0xbe445f58	-0.19176996
32	0x3eff5857	0.49872085
33	0xbe3b924d	-0.18317528
34	0xbe78c645	-0.24294384
35	0xbeaec43f	-0.341341
36	0x3ec9d712	0.39421898
37	0x3e95570c	0.29167974
38	0x3f3e65c2	0.7437402
39	0xbeb5466c	-0.3540529
40	0x3efbacfe	0.4915542
41	0xbefae083	-0.48999414
42	0x3e0e1a28	0.13877165
43	0xbef72ddf	-0.48277184
44	0x3eab1995	0.33417955
45	0x3f23c3f0	0.6397085
46	0x3e380c69	0.17973484
47	0x3ee4378f	0.44573638
48	0x3e9f0946	0.31061763
49	0xbed96d86	-0.42466372
50	0x3e555e7d	0.20836826
51	0xbeff5207	-0.4986727
52	0x3edaa12e	0.42701095
53	0xbe8964f5	-0.26834837
54	0xbe83a16b	-0.2570909
55	0xbed0f31e	-0.40810484
56	0x3e8a38a1	0.2699633
57	0x3ea4c67c	0.32182682
58	0xbea8ae64	-0.3294555
59	0xbedf0d6c	-0.43564928
60	0xbec3e61b	-0.38261494
61	0xbee83025	-0.4534923
62	0x3e99dc19	0.30050734
63	0x3f01f8ed	0.50770456
64	0xbf01f4e4	-0.507643
65	0x3eebb2cf	0.46034858
66	0xbe0d3b2f	-0.13792108
67	0x3f063dc2	0.52437985
68	0xbe829db6	-0.2551095
69	0x3f0179f3	0.50576705
70	0xbe670f3f	-0.2256441
71	0xbe8cc9c1	-0.27497676
72	0x3efe6f56	0.49694318
73	0x3e962610	0.29325914
74	0xbec1a7c3	-0.37823305
75	0x3f6c320c	0.92263865
76	0x3f1ed522	0.62043965
77	0xbefbad71	-0.49155763
78	0x3f07b32b	0.53007764
79	0x3d85bc3b	0.06530043
80	0x3ef64bc7	0.4810469
81	0x3f0f4b73	0.559745
82	0xbeff3d82	-0.49851614
83	0x3eb4ebc1	0.35336116
84	0xbee925b4	-0.45536578
85	0x3f2ff03a	0.6872593
86	0xbe2bee4e	-0.16790125
87	0xbeb6c068	-0.3569367
88	0x3f2384ab	0.6387431
89	0x3f06a249	0.5259138
90	0x3f3bdb9f	0.7338199
91	0x3ed3e733	0.41387329
92	0x3e931c5c	0.28732574
93	0x3e82b456	0.2552821
94	0x3ea40789	0.32037
95	0x3e7f466e	0.2492921
96	0xbedee1f4	-0.43531764
97	0xbea13ca2	-0.31491572
98	0x3eceed5b	0.40415463
99	0x3e8f40c1	0.2797909
100	0x3eb46415	0.35232607
101	0x3ea4397e	0.32075113
102	0xbeaa5eb6	-0.33275384
103	0x3f233c94	0.6376431
104	0x3e96097f	0.2930412
105	0xbed3a6a9	-0.4133809
106	0x3eb2988a	0.34882003
107	0x3f365fe2	0.71240056
108	0x3e8f8a8f	0.280354
109	0xbe90e38a	-0.282986
110	0x3f1746af	0.5909223
111	0xbec39ddc	-0.38206375
112	0x3e380688	0.17971241
113	0xbeab559d	-0.33463755
114	0xbe857696	-0.26067036
115	0xbec72010	-0.3889165
116	0xbee7c4ad	-0.4526724
117	0x3ec2d222	0.38050944
118	0xbeb8453e	-0.35990328
119	0xbe8297ae	-0.25506347
120	0xbea445c8	-0.3208449
121	0x3e3bf536	0.1835526
122	0x3f076fb1	0.529048
123	0x3f01069b	0.50400704
124	0x3e151e06	0.14562234
125	0x3e3d80e5	0.185062
126	0xbf1e0b3c	-0.6173589
127	0x3edd81c5	0.4326307

fc3.weight f4 [1, 128]
0	0xbd07a8aa	-0.033119835
1	0xbd64e93b	-0.05588649
2	0x3d5467ba	0.051856734
3	0xbd4a0cb6	-0.04932853
4	0x3cdafb38	0.026731119
5	0xbe8591bf	-0.26087758
6	0x3d50d816	0.050987326
7	0x3e5273a2	0.20551923
8	0x3e57b19b	0.21063845
9	0x3da2ab58	0.079428375
10	0xbd3d0a19	-0.046152208
11	0x3d5e1165	0.054215807
12	0xbd8a2869	-0.06745989
13	0xbdb7e9d5	-0.08980147
14	0xbde76113	-0.11297812
15	0xbdb5a572	-0.08869447
16	0x3dde5d65	0.10857657
17	0x3d72c6e4	0.059271708
18	0x3d36ba90	0.044611514
19	0x3cde9258	0.027169392
20	0x3dcf73a2	0.10129477
21	0x3df6e605	0.120555915
22	0x3d077358	0.033068985
23	0xbe30ce76	-0.17266259
24	0x3d962569	0.07331354
25	0xbd591f14	-0.053008154
26	0x3d3ea0f3	0.046540212
27	0x3ca74ceb	0.02042242
28	0x3d3da3d3	0.046298813
29	0xbe186805	-0.1488343
30	0x3d6a5503	0.05720998
31	0xbe8e4ab0	-0.27791357
32	0x3d385405	0.045002002
33	0xbdbc3ea4	-0.09191635
34	0xbdc76abb	-0.09737154
35	0xbd4a0454	-0.049320534
36	0x3d35e86d	0.04441111
37	0x3db05dcf	0.086116426
38	0x3e1dec44	0.1542216
39	0xbd9de7bc	-0.077102154
40	0x3e53f028	0.20697081
41	0xbd938487	-0.07203012
42	0x3d82f3b4	0.06394139
43	0xbdaf560c	-0.08561334
44	0x3cca7374	0.024713255
45	0x3e4521df	0.19251202
46	0x3e4f6536	0.20253453
47	0x3dea380c	0.11436471
48	0x3d1444f0	0.036198556
49	0xbdf1f19a	-0.1181366
50	0x3d79bb33	0.060969543
51	0xbd26f417	-0.040760126
52	0x3d74cc2b	0.059765022
53	0xbde340f3	-0.110963725
54	0xbdefd92c	-0.11711344
55	0xbd1ee924	-0.03879656
56	0x3ddb765e	0.10715936
57	0x3d63310f	0.055466708
58	0xbd3067cc	-0.04306774
59	0xbd84205e	-0.06451486
60	0xbd9745ab	-0.07386335
61	0xbd27578a	-0.040854968
62	0x3d606ac4	0.05478932
63	0x3dd7e860	0.10542369
64	0xbdae070f	-0.0849744
65	0x3d664e75	0.056227166
66	0xbd9ee5ea	-0.077586964
67	0x3e3c2ff9	0.18377675
68	0xbd596637	-0.053075995
69	0x3d3873f8	0.04503247
70	0xbe3d5413	-0.18489103
71	0xbd82a931	-0.06379927
72	0x3dd01d1c	0.10161802
73	0x3d6557ec	0.055992052
74	0xbd7ace64	-0.061231986
75	0x3e62fb3d	0.22166152
76	0x3db2c48f	0.08728897
77	0xbd1a6ecd	-0.037703324
78	0x3e00bc7e	0.12571904
79	0x3d70f41b	0.058826547
80	0x3d8e3e98	0.069455326
81	0x3d825249	0.06363351
82	0xbd3ace91	-0.045607153
83	0x3d252c91	0.040325705
84	0xbd77ea21	-0.060526017
85	0x3dd0410e	0.10168658
86	0xbde94a43	-0.113911174
87	0xbd50c398	-0.050967783
88	0x3df6102e	0.12014805
89	0x3e0aabc7	0.1354209
90	0x3db93562	0.09043385
91	0x3d78b939	0.060723517
92	0x3d74c9d6	0.0597628
93	0x3e009e43	0.12560372
94	0x3d4353c5	0.04768731
95	0x3db65f12	0.08904852
96	0xbda89222	-0.082309976
97	0xbd9ba754	-0.07600275
98	0x3e2f192c	0.17099446
99	0x3d5d3a8c	0.054010913
100	0x3ce40100	0.027832508
101	0x3d5144b3	0.051090907
102	0xbdca4786	-0.09876923
103	0x3dc02de6	0.093837544
104	0x3d67f01c	0.05662547
105	0xbd6b8735	-0.05750199
106	0x3ce11219	0.02747445
107	0x3e4ae15d	0.19812532
108	0x3d3af70c	0.04564576
109	0xbd41a0e2	-0.04727257
110	0x3e0b508f	0.1360495
111	0xbddcacc9	-0.10775144
112	0x3d8ee440	0.06977129
113	0xbdce844e	-0.10083829
114	0xbde5c0cc	-0.11218414
115	0xbdd1c4df	-0.10242628
116	0xbd00e3bd	-0.03146719
117	0x3d5d9f98	0.05410728
118	0xbd48d173	-0.04902787
119	0xbd89e07c	-0.0673227
120	0xbeb85471	-0.36001924
121	0x3dc8e891	0.098099835
122	0x3d8899f4	0.06669989
123	0x3d58e694	0.05295427
124	0x3e8f3ae7	0.27974626
125	0x3e33778f	0.17526077
126	0xbd48b853	-0.04900391
127	0x3d1b8d05	0.037976284
